hejsan/policy_cartpole.pth (torch_old, 20032 bytes, 7 tensors)

FC_network.lin1.weight f4 [64, 4]
00000000: 7d31 b13e 78d1 c43e 7719 64bf ca73 0fbf
00000010: d13f fdbc 215e 263e 617d 2d3e b239 903e
00000020: e8e3 aa3e d520 413e 46ad 1ebf 2cf3 5bbe
00000030: 333f 74bf c422 c4be 7c69 f9bd fe35 ac3d
00000040: 3166 253f a34b d33e 6922 35bf 4f04 87be
00000050: a8d4 b73d 7356 803e 42c1 ba3d 8279 b13e
00000060: c20d 29bd 0755 10be 6ef0 283f f46e dfbe
00000070: 3666 32be 4347 0abe 52c7 66bd 804c a83e
00000080: 013d 1bbe c183 b3be 3261 34be 0754 e6be
00000090: 9d43 a6be 0b6c 113f 6063 ee3e b067 a1bc
000000a0: 67be 22be fba5 ddbe e5bf 04bf 77d2 00bf
000000b0: 53e2 3dbe a28f 95be 5020 ef3e eb04 723e
000000c0: fb4f 6fbd e295 15bc 0391 ee3e e5a3 c53e
000000d0: d632 333e f1d4 03be 1fc8 0b3f 03ee 96be
000000e0: 47f6 26be ceed efbe 7f09 70bf d96b aabe
000000f0: 4a2e 193f a702 f33e 68a8 903e d8ab e53e
00000100: a7ff 303f 26ed ac3e c59d f43e e924 c23e
00000110: cf02 023e 1408 903e 62a0 afbd be65 e3bd
00000120: 47f2 4a3e 4d29 033f e110 7f3f 6e90 1c3f
00000130: 06c4 bbbd 96d0 0ebf cae6 013e 3be9 15be
00000140: 040f efbe 62a8 893e e81d 253f af0c dcbe
00000150: c8fc 0d3f baca 1abe 3eb6 1ebf 2dec abbe
00000160: 9547 313e 5379 02bf 5ec2 3e3e b667 6d3e
00000170: 3572 4c3e 9910 02be 149e 9dbe 404a 89be
00000180: 7d24 303e b7c9 33be 9c00 36be 8f2d 79be
00000190: 6077 7d3f a8c6 f73e 0053 00bf 2a75 f2bd
000001a0: b59f 1bbf 6d65 4ebe 283d 91bf 0a20 e1be
000001b0: a0be b03d 950d 073d 3e32 79bc 2cce 6b3e
000001c0: 01b7 c8be daf1 be3e c634 3f3f e60f c5be
000001d0: e4a1 33bd f865 a9bd 9c9a 903e 1983 d23d
000001e0: 01f9 bf3d 0133 7abe 193d 83be a689 8f3e
000001f0: 52c7 96be 1ada bdbe 2f89 0c3d 1656 7abe
00000200: c16c b9bb 855e 13bf 472d afbd b497 183e
00000210: e339 87be 8413 e6bb d372 2b3f 616b 0bbe
00000220: 5a60 d0be 5f54 0ebe 4bee 9e3e 9350 fd3e
00000230: 420f a93e 1a68 3a3e 6f1c 363f 0a3c 5cbd
00000240: 754c 83be bac3 54be b3d2 023f e690 ddbd
00000250: 3c8e a7bd 0db5 fdbe 89e5 a2be 77b9 d4be
00000260: 890b 8ebe d436 4b3e 8309 b5bd 014a 01bf
00000270: 485f 813e 29a3 1bbf a566 95bd 72bf 283d
00000280: b374 fbbc a5ad 8abe fed3 abbe 2991 e7be
00000290: 4d82 28bf e498 0fbe 8d53 493d 6c8f c53e
000002a0: 0e6b a9be 3282 0bbe d0f6 243f 78c8 38be
000002b0: c346 fc3e bc62 c43e fc78 493e 2643 e23e
000002c0: 01a7 68be f8a5 bfbe 6d0f 85be 4e4e 03bf
000002d0: a1ce 2b3e 4730 0cbe d8af 023f 1d34 183d
000002e0: 7c84 413f e6f2 603e 4c02 09bf c1bf e4bd
000002f0: 0b62 9bbe c254 973e d86f 1a3f 6e8a 7d3e
00000300: 5806 76be 5feb d3bd 7d06 27be d7e8 83be
00000310: 2569 febe c160 6ebc 0720 82bf 60fe 8cbd
00000320: 9331 c4bd 5b60 b43d 6a00 ebbd d135 8bbe
00000330: 0be1 42be e3f3 b93e 1699 22bb 2e0a a73e
00000340: 87e3 583e f49a b3bd 0d24 163e e8b2 0dbe
00000350: 1ab4 dbbe 2767 a5bd 3e8b f03d 50de 963d
00000360: e695 54bf fd5f bdbe 807f 843d a6cf 07bf
00000370: 03cc 35be 7c34 f63e c690 0a3f f264 a1b9
00000380: a7a1 c1be 5f89 fd3d 0896 37be b7ba 11be
00000390: fb8a 15bf 4001 38bc b759 afbc 9177 c13e
000003a0: e9c3 abbd 9e69 663e 4d90 203f 31fa 73be
000003b0: eb4c ab3e 693a c6be d11c d3bd 7b13 313c
000003c0: c772 223f 40e2 0d3f 7100 9fbe be24 a23d
000003d0: 4e60 a53e 29ac 13bf 0517 e83e dbe9 06bf
000003e0: b7dc 053e a7cd 1abe f2cb dbbd 157e 02bc
000003f0: 3b4a 933e 19ae b3be 791e 42be 5448 88be
0.3460807 0.38441062 -0.89101356 -0.56036055 -0.03091422 0.16246845 0.1694236 0.28169018
0.33377004 0.1886018 -0.61983144 -0.21479481 -0.95408934 -0.38307774 -0.12178323 0.08408736
0.64609057 0.41268644 -0.7075563 -0.26370475 0.08976108 0.25065956 0.09118892 0.34663016
-0.041272886 -0.14094935 0.65991867 -0.43639338 -0.17421803 -0.13503747 -0.05634243 0.32870865
-0.1515999 -0.35061458 -0.17615202 -0.44985983 -0.3247346 0.56805485 0.46560192 -0.019702762
-0.15892945 -0.43290696 -0.5185531 -0.50321144 -0.18543367 -0.29211146 0.4670434 0.23634689
-0.058425885 -0.009129973 0.4659501 0.38601604 0.17499861 -0.128742 0.54602236 -0.29478464
-0.16304885 -0.46861118 -0.9376449 -0.33285406 0.59836257 0.4746296 0.28253484 0.4485767
0.69140095 0.3377468 0.4777662 0.37918785 0.12696384 0.28131163 -0.085755125 -0.1110339
0.19818984 0.51234895 0.9963513 0.6115788 -0.09168248 -0.55787027 0.12685695 -0.14639752
-0.46691144 0.26886278 0.6449876 -0.42978427 0.5546384 -0.15116397 -0.6199683 -0.33578625
0.17312463 -0.50966376 0.18628833 0.23184094 0.19965442 -0.12701644 -0.30784667 -0.2681446
0.17201419 -0.17557417 -0.1777367 -0.24333785 0.99010277 0.4839375 -0.5012665 -0.118387535
-0.6079057 -0.20155878 -1.1346788 -0.43969756 0.08630109 0.032971937 -0.015209733 0.23027867
-0.3920212 0.37293893 0.746899 -0.38488692 -0.043855563 -0.08271402 0.28242958 0.10278911
0.093736656 -0.24433519 -0.2563255 0.28034705 -0.29448944 -0.3708046 0.034310516 -0.24446902
-0.0056587164 -0.575661 -0.08553558 0.1490162 -0.26411352 -0.0070213694 0.6697208 -0.1361518
-0.4069851 -0.13899373 0.31041178 0.49475536 0.33019453 0.18203774 0.71137136 -0.053768195
-0.2564427 -0.20777789 0.5110275 -0.10818653 -0.08181426 -0.49552193 -0.31815746 -0.41547748
-0.27743176 0.19845134 -0.08839705 -0.50503546 0.25268006 -0.6079584 -0.072949685 0.0411982
-0.030695295 -0.27085605 -0.33560175 -0.45227936 -0.65823823 -0.14023167 0.049151946 0.38585985
-0.3308949 -0.13623884 0.64439106 -0.18045223 0.49272737 0.38356578 0.19675058 0.44191855
-0.22719957 -0.37431312 -0.2598833 -0.5129136 0.16778041 -0.13690291 0.51049566 0.037159074
0.7559278 0.21967658 -0.5351913 -0.11169387 -0.30348238 0.29556853 0.6032691 0.24759838
-0.24025857 -0.10347628 -0.16311069 -0.2576358 -0.49689594 -0.014549435 -1.0166024 -0.06884456
-0.09579768 0.08807441 -0.11474688 -0.27189496 -0.1903116 0.36318883 -0.0024810485 0.32624954
0.21180545 -0.08769789 0.1466219 -0.13837779 -0.42910844 -0.080763154 0.11745308 0.073666215
-0.83041227 -0.36987296 0.06469631 -0.5305122 -0.17753606 0.48086917 0.54127157 -0.00030783523
-0.37818643 0.12379717 -0.17928326 -0.14231382 -0.5841519 -0.011230767 -0.021405084 0.37786534
-0.08386976 0.22501227 0.62720186 -0.23825909 0.3345712 -0.38716438 -0.10308231 0.010807867
0.63456386 0.55423355 -0.31055024 0.07917164 0.32300037 -0.5768457 0.45330063 -0.52700585
0.13072477 -0.15117513 -0.10732259 -0.007964631 0.2876757 -0.35093763 -0.18956937 -0.26617682

FC_network.lin1.bias f4 [64]
00000000: d514 7ebe 960d 0f3f 3950 03bd f1e4 3bbe
00000010: be51 cabd a5d6 213f 55ba 1e3f 3d38 353f
00000020: 8b80 123f fa41 1a3e 78bc 16bd 3d36 ed3e
00000030: 805a 3a3f d4d0 003f ac6c e4bb 1392 3ebd
00000040: 0223 77bd 0a28 e43e cd38 c6bc 5d85 e7be
00000050: 3cfb 523f 63b6 08bd 1c8d 913e b8e2 103f
00000060: f13d df3e d835 d7bd f744 c6bc e763 363f
00000070: 40c9 d93e 9c14 423f 4b61 2c3e e674 093f
00000080: 4677 803e d755 ad3e 340c 80be e2c6 083f
00000090: 69bf 003f 32a0 f03e 0971 7fbc d342 04bd
000000a0: 6cce 353f b68e 2fbe 186c 0b3f 6a12 45bd
000000b0: 1138 6ebd cc08 db3e 4ddf 00bd b4ad d83e
000000c0: 8077 f93e 0e08 173c e118 033f f42e 043f
000000d0: 02d9 0d3f f981 a9bc 093f 31be 5d5a 923e
000000e0: 9b29 0a3f 0c4a 60bc 7736 173f 8a5f 2e3f
000000f0: 5068 72bd f2dd da3e 50b8 0a3f 95ec e23e
-0.24812634 0.55880105 -0.03205893 -0.18349053 -0.09878872 0.63218147 0.6200307 0.7078894
0.5722739 0.1506423 -0.03680083 0.46330443 0.7279434 0.50318646 -0.0069709625 -0.046526026
-0.06033612 0.44561797 -0.024197007 -0.45218936 0.82414603 -0.033377063 0.2842797 0.56595945
0.43601945 -0.10508317 -0.024202807 0.7124619 0.42536354 0.758127 0.1683399 0.53694
0.25090998 0.33854553 -0.2500931 0.5342847 0.5029207 0.4699722 -0.0155909145 -0.03229029
0.710181 -0.17144284 0.5446181 -0.048113264 -0.058158938 0.4278015 -0.031462956 0.42320025
0.48723984 0.009218229 0.5120984 0.51634145 0.5540925 -0.020691859 -0.17309202 0.28584567
0.53969735 -0.013689529 0.5906748 0.6811453 -0.05918151 0.42747456 0.5418749 0.44321123

FC_network.lin2.weight f4 [64, 64]
00000000: 9c78 78be 9b60 553e 650d dcbe 1184 bbbe
00000010: 872c 83be 0702 9a3e 7877 c83e e8cb 403e
00000020: 089c 9e3e daf3 3c3d 6efb d0be 70f4 943c
00000030: dea3 9d3e 712b d23e 9f19 b7be d34a d6be
00000040: 3e61 abbe 2dc2 5e3e ceb3 d8be 59b8 5dbe
00000050: 8528 5f3e 45ae 0cbf 39ea 3a3e 7f82 9a3e
00000060: ff8a 243e b1aa 8cbe 2fbf 0abf 21ce 8b3e
00000070: bce3 b53d e04f 8a3e 2898 dbbc d114 a33e
00000080: db63 873c 8c18 e33e a53c 84be 1fe2 8f3e
00000090: d235 563e d250 8c3e 94a3 05be e0d2 493e
000000a0: 0b80 3e3e 8472 0cbf be44 323e fa8e d2be
000000b0: 4e8e 7bbe e538 bc3e 5a8b b1be 06b2 a03d
000000c0: 2399 263e bbe6 1abf a96c b23d 7298 863e
000000d0: 1046 4c3e 7c27 ccbe 8d4d fdbe 6069 b23d
000000e0: 48fb aa3e c727 dfbd 0a73 a53e f5ec a53e
000000f0: 9a85 78be 2c39 c13e 004b 993e f8b4 df3e
00000100: 3264 17be 4620 b53e d332 4ebe 7f0e 77be
00000110: 040a 9abe 39f9 8d3e 738a b93e 72a6 403e
00000120: 21cc 5f3e 20f6 883d eca4 92be 8d11 8e3e
00000130: 03b7 a13e d11e ae3e a376 92be f738 b5be
00000140: 9ca6 b1be 8964 0d3e c75d 09bf aedf 49be
00000150: 9777 a83e b12d 11bf febf 8b3e 2b10 b63e
00000160: 3cb6 5b3e ae28 70be fd6f 20bf cf6f 5e3e
00000170: c85a 9f3e 0c85 8a3e a3d6 513c 4cce 643e
00000180: bbbd b23d 58fc c73e 1eef 28be e94f be3e
00000190: 7649 993e 88cd 2f3e debc 1a3d c6ab 773e
000001a0: 88a6 b93e dd6b 06bf 6640 913e 03ff 0fbf
000001b0: 7256 84be e73a ad3e 19d4 02bf cba5 8f3e
000001c0: 5622 c63e 9c02 11bf 8cfa f93d 0350 2a3e
000001d0: 4807 b03e db63 c0be 498c 89be 60fa 833d
000001e0: aeb9 123e dd6e 63be f6c7 743e 35dd b23e
000001f0: 0cc2 c6be eb6e 0a3f 606c 673e 504e c73e
00000200: 2f4f 6a3e 16cf 95be 7979 d53e cc8a b13e
00000210: c9f0 e23e 350f 82bd 1d3e ffbc 8e43 69b7
00000220: f2d3 3e3e 0868 fdbd 68fa 583e e750 27be
00000230: 9c82 aebe b764 0ebc 0552 f83e 7c81 8b3e
00000240: 9504 dc3e a3d6 8a3e 3ab0 cc3e 111d 5d3e
00000250: f883 eabb 275a e03e 4178 c53d d141 923e
00000260: 7191 6b3e 11b8 aa3e bcb3 193f fd0e 60be
00000270: 82bc acbc 4bcd 10bd aaf2 e23c 09d0 183e
00000280: aa4f ab3d c668 10be 0b55 893c 7590 d13d
00000290: 177b 0bbe 1d8a ad3e 8b8c 343e 5dcd 863d
000002a0: 23e9 1b3e fe15 3d3e f93d 4abd 8e55 a03e
000002b0: e47d b33e a069 b7be ac47 063f 8ad4 97be
000002c0: 434e aa3d 3ea6 023f 6c9f 8a3e 6242 abbc
000002d0: 2bb0 83bd 0dd7 9d3e 4666 da3e 31d0 163e
000002e0: 412b 8d3e cc83 ec3d 2f4d ea3d a0fd 40bc
000002f0: 98e8 913e 5335 013e f97e 90bd 69df 763e
00000300: 1a5b 8abe 09fe 703e eb04 8dbe 6001 a0be
00000310: 3687 bfbe 0ea3 8f3e 360c ed3e 1cdb 863e
00000320: 9131 bc3e 5f11 b83d da4a 4bbe 34aa 1f3e
00000330: 6956 5a3e 5698 a63e b38e d5bd 34cb f9be
00000340: 43d8 d9be 27e1 8b3d caec c2be 4827 2ebe
00000350: bc49 673e 9e16 16bf cb51 bc3d 61e6 8d3e
00000360: df3b 593e d9b5 dfbe 277c 1abf 5762 a03e
00000370: ea5c 053e 0862 b13e d0d6 613d 4756 793e
00000380: 9dc7 2b3e d400 023f 6bdd a9be dc7e 973e
00000390: b411 973e cead c23e e514 15be 6ba8 5b3d
000003a0: 03b6 ee3e 5959 ecbe fb1d c13e e60d 04bf
000003b0: 78a3 8ebe 9c95 9d3e 4207 b8be b3d1 953e
000003c0: fbc4 443e dd3e 28bf 3d38 1b3e 0602 a73e
000003d0: d79b 8b3e ce79 64be 86a6 c2be a6dd 013e
000003e0: a780 cd3e cd3d f3bc 042b c93e 2831 c73e
000003f0: 60d0 b9be 3810 bb3e e4a4 9e3e 4857 f33e
-0.24264759 0.20837633 -0.4297897 -0.36624196 -0.2561991 0.30079672 0.39153647 0.18827784
0.30978417 0.046130992 -0.40816826 0.018182963 0.30789083 0.41048768 -0.35761735 -0.4185396
-0.33472627 0.2175376 -0.4232468 -0.21652354 0.217928 -0.54953414 0.18253411 0.30177686
0.16068648 -0.27473977 -0.54197973 0.273057 0.088813275 0.27014065 -0.026805952 0.3185182
0.016527107 0.44354665 -0.25827518 0.28102204 0.20918968 0.2740541 -0.13050681 0.19709349
0.18603532 -0.54862237 0.17409036 -0.41124707 -0.24566004 0.36762157 -0.3467663 0.07846455
0.16269355 -0.60508317 0.087121315 0.26288182 0.19948602 -0.39873874 -0.4947323 0.08711505
0.33394837 -0.10896259 0.3231433 0.32407346 -0.24269715 0.3773893 0.29940033 0.43692756
-0.14784315 0.35376185 -0.20136575 -0.24126624 -0.30085766 0.27729204 0.3623844 0.18813494
0.21855213 0.066875696 -0.2864145 0.27747765 0.3158494 0.34007886 -0.28606138 -0.35395023
-0.34697425 0.13807882 -0.5365872 -0.19714233 0.3290374 -0.56710345 0.27294916 0.3555921
0.21456236 -0.23453018 -0.6267088 0.21722339 0.31123948 0.27054632 0.012807521 0.22344321
0.087275945 0.3905971 -0.16497466 0.37170342 0.2993886 0.17168248 0.037777774 0.2418662
0.36259866 -0.52508336 0.28369445 -0.5624849 -0.25847203 0.33834 -0.51104885 0.28056177
0.3869807 -0.56644607 0.12205991 0.16632085 0.34380555 -0.37576184 -0.26864842 0.064442396
0.14328644 -0.2221026 0.23904404 0.34934393 -0.3881992 0.540755 0.22599936 0.38926935
0.22881769 -0.29259557 0.4169424 0.34676206 0.4432433 -0.06350557 -0.031157548 -1.3903611e-05
0.18635538 -0.12373358 0.21189272 -0.16339456 -0.34084022 -0.0086910045 0.48500076 0.27247226
0.42972246 0.2711688 0.399782 0.21593119 -0.007156845 0.4381878 0.09642077 0.2856584
0.230047 0.33343557 0.6003988 -0.21880718 -0.021085981 -0.035352033 0.027703602 0.14923109
0.08364804 -0.14102468 0.016764184 0.10232631 -0.13621174 0.33894435 0.17631738 0.06582139
0.15225653 0.1846542 -0.049375508 0.31315273 0.35056984 -0.35822773 0.5245311 -0.29654342
0.083157085 0.51034915 0.27074754 -0.020905677 -0.06430086 0.30828133 0.42656153 0.14727856
0.27572063 0.11548576 0.11440503 -0.011779219 0.28497767 0.12617998 -0.07055468 0.24108662
-0.2702263 0.23534407 -0.27542815 -0.3125105 -0.37407845 0.28054088 0.4629838 0.26339042
0.36756566 0.08987688 -0.19852772 0.15592271 0.21322025 0.32538098 -0.10427608 -0.48787844
-0.42547807 0.06830054 -0.3807128 -0.17007172 0.22586721 -0.5862826 0.09195288 0.27714828
0.21214245 -0.43693426 -0.6034569 0.31325027 0.13023725 0.34645104 0.0551365 0.24349318
0.16775365 0.50782514 -0.3317674 0.29588974 0.29505694 0.38023227 -0.14558752 0.053627413
0.4662324 -0.46161917 0.37718186 -0.5158371 -0.27859092 0.30778205 -0.35943037 0.2926155
0.19215767 -0.6572092 0.15158172 0.3261873 0.27267334 -0.2231209 -0.38017672 0.12682208
0.40137216 -0.029692555 0.3929063 0.3890469 -0.3629179 0.3653581 0.30985177 0.47527528

FC_network.lin2.bias f4 [64]
00000000: 5e32 a63e 4aba b33e 5b66 e13b bb57 783e
00000010: 7bb7 353e c1d3 563e 00f9 833e 2bc9 1abd
00000020: 1a4d a83e 50a4 253e b501 023e 197d 993e
00000030: 887d bfbd ef1f de3c 9ff7 963c e50b 943d
00000040: 28bc 8a3e 0cc4 863e 8da4 583d 8035 78bd
00000050: 73e5 4ebd 3bf9 a2bd a3e8 073d a735 9c3e
00000060: 4e6f 8b3e c33d 4f3d be50 6e3e 70aa 0f3d
00000070: 4827 3d3d 07ee 493c 58f7 08be 371c 933d
00000080: a5d2 d5bc 953f b2bd 44a1 473d 866e a43e
00000090: a77b 503d 5040 7bbd 9874 773d 0ae3 d63e
000000a0: 9c3f 5c3e 0563 ee3c c0e2 e43d e0f5 9e3e
000000b0: 4c1d 8e3c 5c97 933e 2b8b af3e ad2d 32bc
000000c0: 722e 643e eddc f23d f7a6 ba3e 08a7 bebd
000000d0: 0dc7 9d3e ba57 bf3e 90e3 803e 6029 113e
000000e0: 9fb2 1e3d c941 2bbc fab7 923d 21a9 533b
000000f0: 7ffa 823e cb1a cf3d 8797 e6bc a1cf be3e
0.32460302 0.35103065 0.006878657 0.24252217 0.17745773 0.20979215 0.2577591 -0.037789505
0.32871324 0.16175961 0.12695964 0.29978254 -0.09350115 0.027114836 0.018428622 0.07228831
0.27096677 0.26321447 0.052891303 -0.060597897 -0.05051179 -0.07957693 0.033180844 0.30509683
0.27233356 0.05059601 0.23272988 0.03507465 0.04618004 0.012324817 -0.13375604 0.07183116
-0.02610142 -0.087035336 0.04873778 0.32115573 0.050899174 -0.06134063 0.060413927 0.41970092
0.2150864 0.02909995 0.11176062 0.31046963 0.017347954 0.28826416 0.34285864 -0.010875148
0.22283342 0.118585445 0.3645551 -0.093092024 0.30815926 0.37371618 0.25173616 0.1417594
0.038744565 -0.010452696 0.07163997 0.0032296854 0.25581738 0.10112532 -0.028148426 0.37267783

actor.weight f4 [2, 64]
00000000: 6f92 353d 5978 783d b278 bf3d 79d6 19be
00000010: daac 87bd 9156 153d f486 f6bc f5cf a93e
00000020: c30e 32bd 9524 c63b fbd9 27bd 470d dfbc
00000030: b891 f4bd 160b abbd 5be6 a7bc 9e1a b3be
00000040: de5f 2a3d 72f4 313d a4d8 003e d8c0 c6be
00000050: f4c1 643e 2121 24be ee3a 033e b422 013e
00000060: b6f1 2cbd 8a2a 0c3c b15f e83d cb99 a43d
00000070: cbf4 63be ef07 11bd 1cb5 c5be e03f a23e
00000080: a8d0 95bc 4df0 adbe e12e e3be 335a febd
00000090: 5304 0d3e 9efa d73d f1b3 c43d e26a bc3b
000000a0: 40c4 95bc 52ab 5abd a819 e93c 5d04 05be
000000b0: 6c52 b5bd a960 a0bd 0c84 a33d 6bd9 48bd
000000c0: 3f32 cfbd 2c8b 7cbb 0151 a83d 626c ff3d
000000d0: bdba 3e3d b6bd 2fbb 355f ca3d b0f2 bdbd
000000e0: 7686 903e b899 b4bd b699 adbd 9b64 963d
000000f0: 8ed9 883d 0481 a33e 9209 90be f8c5 403c
00000100: 0b56 bf3c 3fbb 19bc b732 44be 4c97 b23d
00000110: 69e4 c33d 0eca ef3d 6eb8 8cbd 8685 8ebe
00000120: cbeb a63d 88bb 053e 7b55 e53d 6b53 e73d
00000130: 78ca cb3c 341d ddbd e003 a0bc 976f 8d3e
00000140: d98f debd b80a 123e dd97 ecbd 3515 563e
00000150: b94e 1ebe 3cdb 783e f7a2 32be ade3 b7bd
00000160: cba7 8f3d ed0f 8ebd 1d8d 3a3d b64f 08be
00000170: c401 6f3e 58da 4e3d 93d5 5a3e 4e78 94be
00000180: 0cd1 a7b9 68df 9d3e 828b 843e 3fd1 84bd
00000190: bfa3 bebd 5493 b03d eb17 c2bd bb79 bf3c
000001a0: b3f5 c0bd 351c 54bc 49bf cfbd 9b75 aabd
000001b0: 7115 0ebc d5ad 053d 84ab 55bd b136 493e
000001c0: dc7f f8bc 0df1 e63d 0ed9 aa3d 44ce d8bd
000001d0: dde8 e5bc 6682 ce3c d5eb 533b bcdc 473d
000001e0: d6f7 56be 87bb a2ba 4ebd 80bd 8580 a1bd
000001f0: c54a 05be dcb2 afbe f435 343e 00eb 0ebd
0.044329103 0.060661647 0.09349193 -0.15023221 -0.06624766 0.03645951 -0.030093648 0.3316647
-0.04347111 0.0060468414 -0.040979367 -0.02722801 -0.11941856 -0.08351724 -0.020495584 -0.34981245
0.041595332 0.04344601 0.12582642 -0.38819003 0.22339612 -0.16028263 0.12815449 0.12610894
-0.0422227 0.008555064 0.11346377 0.08037146 -0.2226135 -0.035407957 -0.38614738 0.31689358
-0.018287972 -0.33972397 -0.44371703 -0.12419548 0.13771181 0.10545848 0.096046336 0.005750046
-0.018282056 -0.05338604 0.028454617 -0.12989946 -0.08853611 -0.078309365 0.0798417 -0.04903547
-0.101170056 -0.0038535101 0.08218575 0.12471844 0.046564806 -0.0026815957 0.098814406 -0.092748046
0.28227586 -0.08818382 -0.08476584 0.07343408 0.0668212 0.3193437 -0.28132302 0.011765949
0.023356458 -0.009383022 -0.19159971 0.08720264 0.0956505 0.11708461 -0.06871115 -0.27836245
0.08150443 0.13059819 0.11197945 0.112952076 0.024876818 -0.10796586 -0.019533098 0.276242
-0.108672805 0.14261901 -0.11552403 0.20906527 -0.15459718 0.24302381 -0.17444979 -0.089789726
0.07014426 -0.06936631 0.045544732 -0.13311657 0.23340517 0.050501198 0.21370535 -0.28998035
-0.00032008474 0.30834508 0.25887686 -0.06485223 -0.09308576 0.086218506 -0.09477218 0.023373475
-0.094218634 -0.012946178 -0.101439066 -0.08323213 -0.008672104 0.032636482 -0.052165523 0.1964977
-0.030334406 0.112764455 0.08342181 -0.10586217 -0.02806514 0.025208663 0.0032336612 0.048794493
-0.2099298 -0.0012415507 -0.06286107 -0.07885841 -0.13016804 -0.34316146 0.17598706 -0.034892082

actor.bias f4 [2]
00000000: 435f d6bd 8404 2abd
-0.104673885 -0.041508213

critic.weight f4 [1, 64]
00000000: 915a b33e 9347 c13e 5574 0bbf 3fab dd3e
00000010: 09d1 fb3e 5306 cb3e 2890 c13e 823f d9be
00000020: 10b5 c53e 5438 053f d7e0 053f 95f5 e43e
00000030: c40c f33d c2e4 d8bb 4ac1 02bf 5e96 fabe
00000040: 6cfd d53e 88aa d13e 60df d3be ebe1 1bbf
00000050: 7966 0abf cd32 00bf 89c2 d3be 4a9f de3e
00000060: 9889 d83e 96dd eabd 7d98 db3e cf75 13bf
00000070: 6e2d d3be 6f82 21bd 6a38 0bbf 3717 01bf
00000080: b683 debe 4a89 15bf d789 f2be a65b b63e
00000090: be70 f4be 369d 383d 06af e0be d1ff cc3e
000000a0: 1998 e93e 2641 08bd 215a 003f cc51 d03e
000000b0: 3bbd c4bd 0837 f53e 6842 c93e bf1f f4be
000000c0: 9aad 003f 9232 cbbd cf1b c53e 06ba c0bc
000000d0: b782 e73e f03b d13e d2b9 ea3e 2641 d43e
000000e0: a543 e6be 5d9e debe e2a0 babd b6d4 ab3e
000000f0: 3778 013f f0f1 b23e 8fda e8be 2cfa c23e
0.35030034 0.3774992 -0.54474384 0.43294713 0.4918292 0.39653262 0.37805295 -0.42431265
0.38614702 0.52039075 0.52296203 0.44718614 0.11867669 -0.006619067 -0.51076186 -0.48942846
0.41794908 0.40950418 -0.4138136 -0.608916 -0.5406261 -0.50077516 -0.41359356 0.43480903
0.42292476 -0.114680454 0.42889777 -0.57601637 -0.41245598 -0.03943103 -0.54382956 -0.5042605
-0.43459862 -0.5841261 -0.47370788 0.35616797 -0.47742265 0.045071803 -0.43883532 0.40038922
0.45623854 -0.033265255 0.50137526 0.40687406 -0.09606405 0.47893548 0.39308476 -0.4768047
0.50264895 -0.09921755 0.3849778 -0.023526203 0.45216915 0.4086604 0.45844895 0.41455954
-0.44973484 -0.43480197 -0.09112717 0.33560723 0.5057406 0.3495021 -0.45479247 0.3808149
