hejsan/policy_cartpole.pth (torch_old, 20038 bytes, 7 tensors)

main_net.layers.0.weight f4 [64, 4]
000000 6f 0f b6 3d de 20 13 bd 90 46 a1 bd 9c 2f 79 bd
       0.088896625 -0.035920016 -0.07874787 -0.06083642
000010 23 ee ff 3d 9c d2 d5 bd 04 2d 0a bd 05 46 e8 bd
       0.12496593 -0.10440561 -0.033734336 -0.1134148
000020 2e a4 2c be 8b 70 b6 3c 39 e7 0d 3c 02 e6 a0 3a
       -0.16859505 0.022270462 0.008661085 0.0012275579
000030 27 8b d2 3d 60 5d 83 be 27 29 34 bb 82 de 68 be
       0.102804475 -0.25657177 -0.002749035 -0.2274113
000040 9e 2b 64 3d fa 72 07 3f 73 06 25 be f7 eb 04 be
       0.05570566 0.52909815 -0.16115741 -0.12980638
000050 bc b9 d5 3d 52 30 04 be fd 32 b9 be a3 2c 7a bd
       0.10435817 -0.12909058 -0.36171713 -0.061077725
000060 e3 e5 4e 3e da 0b 9f be 09 38 eb be 6e cb 79 be
       0.20204882 -0.3106373 -0.4594119 -0.24394009
000070 3f 9b 1d 3d e8 93 d8 3e eb f4 dc 3f a1 c8 e4 3e
       0.038478132 0.42300344 1.7262243 0.44684318
000080 81 5e 94 3c d0 18 2e 3d 90 8d 81 bb a8 51 86 bd
       0.01811147 0.04250413 -0.003953643 -0.065585434
000090 da e8 17 bd 9f b0 79 3d 8c ed 62 bd 01 39 b0 bd
       -0.0370873 0.060959455 -0.055402324 -0.08604623
0000a0 b7 72 c0 3d 23 e0 f5 be c9 e0 8d bf 77 8c cf be
       0.0939688 -0.48022565 -1.1084224 -0.40536854
0000b0 bf cf f6 bc 87 92 91 bd 2a 56 2f be a5 ef c9 bd
       -0.030128358 -0.07108026 -0.17122713 -0.09860162
0000c0 bb 39 b3 3d 4e 4b 99 3b a6 ee b9 bd 2a bd 6f bc
       0.087512456 0.0046781665 -0.09078722 -0.014632503
0000d0 58 57 01 3e dc 4f 10 be f4 9a 86 be 38 d9 ca bd
       0.12630975 -0.14092964 -0.26290095 -0.099047124
0000e0 82 78 a3 3c 2e eb 3f be 3b 97 47 be ba ea 33 be
       0.019954924 -0.18742058 -0.19491284 -0.1757001
0000f0 2d c2 b7 bb 7b 8e a2 bd 28 22 06 be ea 5f b9 bd
       -0.0056078644 -0.07937332 -0.13098967 -0.09051497
000100 15 d3 bd bb bb 34 39 bb 55 76 94 3c c9 ef 02 be
       -0.005792985 -0.002826019 0.018122831 -0.12786783
000110 09 5c 19 3e 2d 73 45 be f4 1c 82 be 4c 0c c2 bd
       0.14976515 -0.19282217 -0.25412714 -0.09475002
000120 92 2e 87 3f 33 6e 48 3f ba 65 18 3e 09 52 3b 3e
       1.0561087 0.7829315 0.14882556 0.18293013
000130 73 a6 8b bd 61 b8 2f bd 76 11 31 3d b0 86 0d be
       -0.06818857 -0.042900447 0.043229543 -0.1382091
000140 55 56 85 bd 85 f1 29 be aa 2c 54 bd 59 97 41 be
       -0.06510607 -0.16596039 -0.051800407 -0.18905391
000150 5d 4b 09 3e 06 eb 47 be 7f 4a 2a bd 6b eb 47 be
       0.13407655 -0.19523248 -0.04157495 -0.19523399
000160 46 1c 2d 3e d3 a4 44 be 78 64 78 be fe 31 9a bd
       0.16905317 -0.192035 -0.24257076 -0.075290665
000170 00 dc 30 3d 11 9c 5d bd d4 8a ca 3d 3a ea d0 3d
       0.04317856 -0.054103915 0.098897606 0.10200925
000180 89 9e 1b 3d 07 76 f4 3c 59 c1 79 be a4 0b d1 3b
       0.037992988 0.029841436 -0.24390163 0.0063795615
000190 fd 60 67 bc 45 cd 0a be e3 ea bf bc 8b 32 09 be
       -0.014122245 -0.13554867 -0.023427432 -0.13398187
0001a0 cd e5 79 3b fe 15 f9 bb f2 c6 22 bd ae 62 93 3d
       0.0038131357 -0.0076014986 -0.03974051 0.07196556
0001b0 a8 09 08 3e f9 f7 55 be 33 2d d9 bd e5 95 66 be
       0.13284934 -0.20895375 -0.10604324 -0.22518118
0001c0 98 df 9a 3e a1 9c 5e 3d 48 f8 95 be bc 04 12 bd
       0.30248713 0.05434859 -0.29290986 -0.035649046
0001d0 99 76 f8 3e c1 5d d0 be 09 30 81 bf b9 9c 97 be
       0.48527983 -0.4069653 -1.0092784 -0.29611757
0001e0 e5 bc a7 3d 03 bf ea bd 97 aa e4 bd 4e 3c 20 be
       0.08190326 -0.11462214 -0.1116535 -0.15648004
0001f0 fe 9e d0 3d bf 2b b1 bd 10 7c 72 3d a8 4a 01 be
       0.10186575 -0.08650922 0.059200346 -0.12626135
000200 cd db 14 be 99 fb e0 bd b4 80 24 3e d2 99 0b be
       -0.14536972 -0.109854884 0.16064721 -0.13632897
000210 54 5f 13 3f 4b 8d 13 3d 0c 2a e3 be 79 eb 28 bd
       0.57567334 0.03602342 -0.44368017 -0.04124019
000220 0e b4 d2 3d 96 5b 94 bd ef 49 94 bc 24 2d 60 3c
       0.10288249 -0.07244031 -0.01810166 0.013682637
000230 05 81 af bc 06 2e 4a 3d 7a 1d 11 be 43 56 ac bc
       -0.021423826 0.049360298 -0.141714 -0.021037227
000240 a4 99 15 3e 44 b1 56 be 1e a8 b0 be de f1 b9 bd
       0.1460939 -0.20966059 -0.34503263 -0.09079336
000250 bb ae de 3d 6b ae ea bd e4 65 e9 bd ee 7c e5 bd
       0.10873171 -0.11459049 -0.11396387 -0.11205469
000260 85 ce 20 be f5 1d 3c bd 7b db 71 be 94 bc a4 bd
       -0.15703781 -0.045927007 -0.23618881 -0.08043781
000270 c4 8d a6 3d dd 79 8d be e3 58 63 3d 7b 25 8c be
       0.081325084 -0.27632037 0.05550469 -0.27372345
000280 69 e1 38 bc 57 cf 41 be df a2 2b be da 75 38 be
       -0.011284211 -0.1892675 -0.16761349 -0.18013707
000290 59 61 6a 3c d8 5c 4e bd 9f 9b ae 3d b3 be 30 be
       0.014305436 -0.05038151 0.08525776 -0.17260246
0002a0 85 39 7f 3c 15 06 9f bd ad 81 8b bd af f5 f7 bd
       0.015577679 -0.07764832 -0.06811843 -0.12107407
0002b0 6e 1b 17 be d0 df 92 3d a7 d4 30 be 2d 6c 9a bd
       -0.14756557 0.07171595 -0.1726862 -0.07540164
0002c0 d8 15 aa 3d f4 18 15 be 5e 85 a6 be 2e 32 29 be
       0.083049476 -0.145603 -0.32523626 -0.16523048
0002d0 04 84 ae 3d 4c 46 22 be 05 a2 a7 be 52 d5 ab bd
       0.08521274 -0.15847129 -0.327408 -0.08390297
0002e0 e4 12 56 be ca 0c e5 be 1e cd b5 bf da 95 19 bf
       -0.20905644 -0.4473632 -1.4203222 -0.5999428
0002f0 36 64 af 3d 5b f9 8a be 23 2f a2 bb 0c 10 64 be
       0.085640356 -0.27143368 -0.004949467 -0.22271746
000300 69 c0 9b 3d 48 dd 95 bd 90 b8 74 be db da b8 bd
       0.07605059 -0.07317597 -0.2389853 -0.09026118
000310 57 f3 3b 3d 51 22 e5 bd 6d 86 d0 3d c7 1c 04 be
       0.045886364 -0.11188186 0.1018189 -0.12901603
000320 7a c0 8e bc f2 ab 8d 3c 7e cf 84 be 80 d2 1b bd
       -0.017425764 0.017293904 -0.25939554 -0.038042545
000330 97 e0 25 3d f0 a4 96 3c 82 85 1c be f4 28 2f bd
       0.04049739 0.018389195 -0.15285304 -0.042763665
000340 70 d6 fb be 20 14 1d bf 17 62 99 bf da 3c 0d bf
       -0.4918704 -0.61358833 -1.198306 -0.5517098
000350 e9 56 99 3d 93 96 c7 bd 4a fa 58 be 54 2e 03 be
       0.0748728 -0.09745517 -0.21189228 -0.12810642
000360 0d 5a 83 3d 8c 4f d3 bd 54 17 98 3e 23 4c 57 be
       0.0641366 -0.10317907 0.29705298 -0.21025138
000370 b4 bd fb 3d af 82 de bd 25 26 4a be 83 1d 60 bd
       0.122920424 -0.1086477 -0.19741113 -0.054715645
000380 90 09 06 3e 2d fd 1b be c5 2c 75 be 4e d4 17 be
       0.13089585 -0.15233298 -0.2394286 -0.14827082
000390 3f cf 79 3d 5f 1a 89 be b1 aa 4a be a4 01 11 be
       0.06098866 -0.26777932 -0.19791676 -0.14160782
0003a0 b1 15 01 bd a8 e2 4c 3d 0c bc 0e be 5a 68 a4 bd
       -0.031514827 0.050020844 -0.13938922 -0.08027716
0003b0 fc 13 bb 3b 02 51 90 3c b7 9f f2 bd 29 3c ba bd
       0.0057091694 0.017616753 -0.118468694 -0.09093506
0003c0 58 91 c1 3d 1f 5b 64 bd 41 f3 12 bd 6c a7 b9 bd
       0.0945155 -0.055750962 -0.035876516 -0.09065136
0003d0 81 ad 74 bd d3 e5 30 3d f8 03 26 be a0 a7 51 bd
       -0.05973578 0.043187927 -0.16212451 -0.05118525
0003e0 1e e5 44 3d ea fb 59 be df 86 44 be 59 49 4a be
       0.048070066 -0.21287504 -0.19192074 -0.19754542
0003f0 bc f1 db 3b 94 7b ff 3c c3 79 39 bd ac a3 d7 bd
       0.0067121666 0.031186856 -0.045282137 -0.10529265

main_net.layers.0.bias f4 [64]
000000 22 a0 63 3e 5a 9c 80 3e 27 4b 65 3e 1f 67 71 3e
       0.22229055 0.25119287 0.2239195 0.23574494
000010 9e 97 8e 3e 74 48 46 3e 97 80 94 3e 49 dd 19 bd
       0.2785005 0.19363576 0.29004356 -0.03756455
000020 29 c1 88 3e b8 d9 7f 3e 8b 21 12 bb 79 4e 74 3e
       0.2670987 0.24985397 -0.0022297825 0.2385806
000030 0d c2 80 3e 6d 6c 6d 3e 25 78 64 3e 49 db 51 3e
       0.2514805 0.23185892 0.22311457 0.20493807
000040 39 66 58 3e 55 31 8e 3e ce da 7d bc c5 cb 57 3e
       0.21132745 0.27772012 -0.015494062 0.21073826
000050 aa 45 84 3e bd ce 76 3e 8c 62 a6 3e 05 0a 89 3e
       0.258344 0.24102302 0.3249706 0.26765457
000060 44 be 77 3e 70 f8 5a 3e 97 5c 84 3e 31 c3 69 3e
       0.24193674 0.21383834 0.2585189 0.22828366
000070 91 46 a0 3d 86 8e ad 3d 7c 30 52 3e c6 ce 6e 3e
       0.078259595 0.0847445 0.20526308 0.23321065
000080 df 82 66 3e 63 39 1c 3e 6d 72 83 3e a7 2d 79 3e
       0.22510861 0.15256266 0.25673237 0.24333821
000090 51 f0 84 3e 5d ea 61 3e e8 80 5b 3e 37 33 8a 3e
       0.25964597 0.22062059 0.21435893 0.269922
0000a0 5b 06 77 3e a1 d6 6e 3e ff 95 41 3e 41 06 49 3e
       0.24123518 0.23324062 0.18904875 0.19631292
0000b0 3f 53 5e 3e 42 ed 68 3e 37 9b 0f be 3b e8 79 3e
       0.21711443 0.22746757 -0.14024054 0.24404995
0000c0 b8 25 56 3e d8 31 63 3e 70 b1 6e 3e 53 18 74 3e
       0.20912826 0.22186983 0.23309875 0.23837404
0000d0 61 d8 4a bc 84 d6 64 3e 3b 93 4f 3e ad 82 7d 3e
       -0.01238069 0.22347456 0.20271008 0.2475688
0000e0 22 17 73 3e 66 a9 7b 3e 3b 15 6f 3e e7 8c 5e 3e
       0.23739293 0.24576339 0.23347943 0.21733437
0000f0 13 4f 6c 3e e0 14 55 3e 6c 66 73 3e e2 f3 63 3e
       0.2307704 0.20808744 0.2376954 0.22261003

main_net.layers.1.weight f4 [64, 64]
000000 78 f5 a4 3e e1 a5 1a 3e 52 8e 76 3c 6e 63 ab 3e
       0.32218528 0.1510234 0.01504858 0.33474296
000010 7b db 33 be 70 44 75 3e 84 c3 aa 3e b7 2e ab bf
       -0.17564194 0.23951888 0.33352292 -1.3373631
000020 03 b0 7e 3e cc c6 b3 3d 4c b1 cb be 84 ae bc 3e
       0.2487183 0.08778152 -0.39783704 0.36851895
000030 db 8b 55 3e cf 5d cb 3e 94 f6 df 3e d3 12 bc 3d
       0.20854132 0.39720008 0.43742812 0.09183278
000040 7b 38 31 3d be 94 ab 3e 07 85 3a be 5d 44 8e 3e
       0.043266755 0.3351192 -0.18214808 0.27786532
000050 4e 98 8f 3c 41 a5 0e 3f 96 4b 29 3e fe 35 29 3e
       0.01752868 0.5572091 0.1653274 0.16524503
000060 8d 19 1b 3e 36 61 0d 3e e5 83 9b bd 02 83 e4 3e
       0.15146466 0.13806614 -0.07593516 0.446312
000070 83 cf 1f 3e f0 de a3 be 68 97 80 bd 77 6e 9b 3c
       0.15606503 -0.32006025 -0.062788785 0.018973572
000080 b7 9b e6 bd b6 47 19 3e 14 73 97 3e 96 ea 4a 3d
       -0.11260169 0.14968762 0.29579985 0.049540125
000090 27 f2 6f 3d d9 26 8b 3e 50 80 9b 3d 09 a2 ea 3d
       0.058580544 0.27178076 0.07592833 0.11456687
0000a0 1f 8a 83 3e 96 2f 08 3d 92 bf 75 3e 54 48 09 3d
       0.25691316 0.033248506 0.2399886 0.033516243
0000b0 c4 1d 98 3e b9 f8 be 3e a9 e8 f4 be 0e 39 85 3e
       0.2971021 0.37299135 -0.47833756 0.26020092
0000c0 36 cb 9b 3e b8 e0 07 3e d6 44 73 3e 29 6f 9c 3e
       0.30428475 0.13269317 0.23756728 0.30553558
0000d0 26 5d 28 bf 85 4b cd 3e 45 42 8e 3e 44 6a 25 3e
       -0.65767133 0.4009668 0.27784935 0.16153818
0000e0 28 ef 12 3e ea 5c 5b 3e e7 24 5c 3e 9b b9 17 3d
       0.14349043 0.21422163 0.21498452 0.03704224
0000f0 b9 22 80 3e 0b 1c ba 3e c1 f4 e2 3d 84 91 64 bd
       0.2502649 0.3634952 0.11081839 -0.055802837
000100 1f 16 0d 3f 94 0a 99 3e 1b 8a b3 3d 5b 69 8a 3e
       0.5511188 0.29890883 0.08766576 0.27033505
000110 cb 83 1b bc 8c fe aa 3e 3b a0 f3 3e 28 d3 94 bf
       -0.009491871 0.3339733 0.47583184 -1.162694
000120 03 a5 b0 bc aa 96 72 3e 3f 01 d6 be 5e ec 8e 3e
       -0.021563059 0.23690286 -0.41797826 0.2791471
000130 e4 cf 4b 3e b0 0c ae 3e 57 9a 89 3e ec 29 0b 3e
       0.19903523 0.33994055 0.26875564 0.1359021
000140 f8 52 f6 3d 51 12 74 3e f5 ad 78 be 03 cf 5f 3d
       0.12027544 0.23835112 -0.2428511 0.05464078
000150 d2 f4 23 3e 41 df 04 3f ca c1 06 3d 01 bc a1 bd
       0.1601136 0.5190316 0.032899655 -0.07897187
000160 87 0e 83 3e a4 be 17 3e fe 0a 31 be ee a1 c0 3e
       0.2559702 0.14818817 -0.1728935 0.37623543
000170 8f c5 64 3e 8b 18 07 be 2a d3 9a 3e 54 c7 50 3e
       0.22340988 -0.13192956 0.3023923 0.20388538
000180 61 7d 8d 3e 59 c7 40 3d 7e 24 25 bc 4e c6 eb 3e
       0.2763472 0.047065113 -0.010079501 0.46049732
000190 34 29 84 3e 1d 27 e7 3d df 39 aa 3e b1 1b 79 bc
       0.25812685 0.11286757 0.33247277 -0.015204356
0001a0 12 27 a4 3e 36 ca 7b 3e de 3e 0d 3e cb cf 26 3e
       0.32061058 0.24588856 0.13793513 0.16290204
0001b0 2a 71 ff 3e 9e fe a7 3d ea c7 5b bf 53 be dd 3e
       0.49891025 0.08202861 -0.8585192 0.43309268
0001c0 c6 83 2d 3e 01 68 58 3e 11 96 df 3d 4b c0 7e 3e
       0.16944799 0.21133424 0.10917295 0.24878041
0001d0 a2 99 30 bf d8 8a 87 3e d1 72 ee 3e 51 70 55 3e
       -0.68984425 0.26473117 0.46571973 0.20843627
0001e0 c1 af 4f 3e de db ed 3d 16 f4 6f 3c 06 10 3e 3e
       0.20281889 0.11614202 0.014645597 0.185608
0001f0 da 41 c2 3e 6a 63 82 3e f9 0a a5 3e 12 0a 38 3e
       0.37940866 0.25466472 0.32234934 0.17972592
000200 a3 53 55 3e ca 5d 41 3e 79 c9 c9 3d a1 96 2a 3e
       0.20832686 0.18883434 0.09852881 0.16659023
000210 ba ef 13 be 61 ee af 3e ce 9e b6 3e 54 b4 9a bf
       -0.14446917 0.34361556 0.35668033 -1.2086282
000220 94 ea 13 3d 27 24 bc 3d 47 ce 43 bf ba 67 0c 3d
       0.036112383 0.09186583 -0.7648663 0.03427861
000230 ff 30 a8 bc 9c 9b ac 3e 13 d6 cf 3e e1 2f a1 3d
       -0.020531176 0.3371247 0.40593013 0.0787046
000240 fc cd c5 bc 0c f9 58 3e e2 e4 85 be 6d 40 29 3e
       -0.024146073 0.21188754 -0.26151186 0.16528483
000250 c3 84 8b 3e 06 c7 a8 3e cb ef 2a 3e ff 52 7e 3d
       0.27249727 0.32964343 0.16693036 0.06209087
000260 33 f8 83 3e b0 94 a7 3e 7a 63 77 3e 7d a7 91 3e
       0.25775298 0.32730627 0.24159041 0.28448096
000270 a5 81 05 3e 95 d6 47 bf e6 ec b4 3e 69 ac 37 3c
       0.13037737 -0.780618 0.3533699 0.011210539
000280 50 8e 86 3e 40 65 6e 3c bd 6b 6f 3e 59 72 98 3d
       0.2628045 0.014550507 0.23380943 0.07443685
000290 56 37 e0 3d 75 40 96 3d db 08 15 3e 99 da a6 3e
       0.109480545 0.07336513 0.1455416 0.32588652
0002a0 e0 3a 87 3e e4 cb 5d 3e fe 62 c5 3e 7f bd 5c bd
       0.26412106 0.2165981 0.38552088 -0.053891655
0002b0 25 ad 8a 3e 3a 55 6f bd 5b 9a 51 bf 7e ad 25 3e
       0.27085224 -0.058430888 -0.8187615 0.16179463
0002c0 bd 41 52 3e 3c f0 7f 3e 76 56 7c 3d 8a c2 14 bd
       0.2053289 0.24993986 0.061605893 -0.03631834
0002d0 2e 32 54 bf 8b 49 a2 3e 8e 23 48 be bb 2b 94 3e
       -0.8288907 0.31696734 -0.19544813 0.28939614
0002e0 6b 9d a8 3e 1e 88 1f 3e 4d a1 c8 3d 1a 1e 0c 3e
       0.329326 0.15579268 0.09796391 0.13683358
0002f0 54 b7 2a 3d 3a 9d 5b 3e 2c f6 14 3e 8d d0 93 3d
       0.04167874 0.21446696 0.14547032 0.07217512
000300 59 71 2a 3d 0f fa b0 3d f8 12 5f 3d 61 db 89 3e
       0.041612003 0.08641445 0.05446145 0.26925185
000310 1a 18 b1 bd bf 3c 85 3e 2b a2 eb 3e 37 64 62 bf
       -0.08647175 0.26022908 0.46022162 -0.88434166
000320 f9 be 85 3d ca ae b3 3e 94 44 1c bf ce 80 51 3e
       0.06530566 0.3509429 -0.6104214 0.20459291
000330 b0 1f 8a 3e d2 9b 92 3e 74 1b 81 3e ce 39 2f 3e
       0.269773 0.28634506 0.25216258 0.17111894
000340 9c b0 c5 bd bb 22 ca 3e bd 36 dc be 6b 34 36 3e
       -0.09652826 0.39479622 -0.43010512 0.17793433
000350 04 20 6e 3e 35 d4 64 3e 86 54 a5 3e 62 9d 2d 3e
       0.232544 0.22346576 0.3229105 0.16954568
000360 35 e4 8a 3e 57 80 7b 3e ac a4 9d 3e a9 82 c4 3e
       0.27127233 0.24560677 0.30789697 0.38380936
000370 ed 88 24 bc b7 2b 0e bf 12 e3 aa 3e e7 cd b5 3e
       -0.010042411 -0.55535454 0.33376366 0.35508654
000380 1c 55 ec 3d f5 fd 70 bd b4 a8 58 3e 31 d6 4b 3d
       0.11539671 -0.058835942 0.21158105 0.049764816
000390 89 dc 74 3e 13 5e 8b 3e b4 46 a8 3e 8b 21 2b 3e
       0.23912252 0.2722021 0.32866442 0.16712014
0003a0 36 48 c2 3e 88 2f f8 bd 12 ac 1b 3e 77 7d a0 3e
       0.37945718 -0.12118441 0.15202358 0.31345722
0003b0 08 2e aa 3e 6b c3 93 3e ee 9b 70 bf e0 16 c5 3e
       0.33238244 0.2886003 -0.9398793 0.38494015
0003c0 92 7e ad 3d 57 86 cc 3e bd fb b2 3d 9b 82 78 3e
       0.08471407 0.39946243 0.087394215 0.24268572
0003d0 fd b4 8a bf 29 e7 8a 3e 73 52 9e 3d 4b 0b 46 3e
       -1.0836483 0.27129486 0.0773057 0.19340245
0003e0 b7 18 04 3e b4 01 de 3e 99 83 e4 3d a0 e2 78 3d
       0.12900053 0.43360674 0.11157913 0.060763
0003f0 23 75 65 3e 1e 86 82 3d d7 b4 22 3b 2f 11 de ba
       0.22407965 0.06373237 0.0024827027 -0.0016942377

main_net.layers.1.bias f4 [64]
000000 12 87 ed 3d 32 e6 fa 3d 14 b7 28 3e 66 59 56 3e
       0.11598028 0.122509375 0.16476089 0.2093254
000010 dc 10 17 3e 06 b0 33 3e 74 2a 43 3e 2c 67 51 3e
       0.14752525 0.17547616 0.19059163 0.20449513
000020 1d 3b 2e 3e fe 84 39 3e 4c 60 2d 3e 85 65 04 3e
       0.17014737 0.18117139 0.16931266 0.12929352
000030 db ac 20 3e a3 07 20 3e a2 e2 29 3e 56 b3 2f 3e
       0.15690939 0.15627913 0.1659036 0.17158255
000040 c8 fc 63 3e 00 00 00 00 23 d9 32 3e 9c b3 2d 3e
       0.22264397 0.0 0.17465644 0.16963047
000050 8a fe 2f 3e 67 b0 2f 3e 11 d0 22 3e 0f ef 33 3e
       0.17186943 0.17157136 0.15899684 0.17571662
000060 53 9f 14 3e 9d ff 4a 3e bd 9e 26 3e a9 e0 14 3e
       0.14513902 0.19824071 0.16271491 0.14538826
000070 9f ad 0d 3e 7e 64 2f 3e ac f0 44 3e 17 74 3e 3e
       0.13835762 0.17128178 0.19232434 0.18598972
000080 ae be 31 3e c9 f0 20 3e 96 68 1b 3e cd ed 2b 3e
       0.17357895 0.15716852 0.15176615 0.16789933
000090 1a 69 1e 3e 5d 6d 43 3e 14 d6 3e 3e 36 4a 0f 3e
       0.1546978 0.19084688 0.18636352 0.13993153
0000a0 0f 2c 2d 3e ca de 43 3e 9a c8 15 3e 06 03 e2 3d
       0.16911338 0.19127956 0.14627305 0.11035733
0000b0 3b b6 40 3e ae 74 38 3e 0b 7b 23 3e b8 a8 0b 3e
       0.18819515 0.1801326 0.15964906 0.1363858
0000c0 b5 99 04 3e 41 4b 2a 3e f6 24 4b 3e c8 1b 0b 3e
       0.1294926 0.1663027 0.19838318 0.13584816
0000d0 7d c0 15 3e ed f6 eb 3d 73 8d 04 3e af 56 1d 3e
       0.1462421 0.11521707 0.12944584 0.15365098
0000e0 c4 7f 4a 3e 74 5a 23 3e 56 a2 3f 3e 13 1e 5a 3e
       0.19775301 0.15952474 0.1871427 0.21300535
0000f0 36 a8 37 3e 79 cb 2b 3e 64 e8 2c 3e 86 9c 27 3e
       0.17935261 0.16776837 0.16885525 0.16368303

fc_actor.weight f4 [2, 64]
000000 da cc bd 3e ec 40 c0 3e bf ce 4a bd 46 83 0b be
       0.37070352 0.3754953 -0.049513575 -0.13624296
000010 40 29 46 3e 8b ce 6e be 61 c8 59 3d ca 1b ee bd
       0.19351673 -0.23320977 0.05316961 -0.11626394
000020 04 13 ed bd 66 c4 e7 bd c3 34 61 be 93 6e 99 3e
       -0.115758926 -0.11316757 -0.21992783 0.29967174
000030 24 69 b4 3c 90 46 0e bd 32 93 db bd 96 48 01 3e
       0.022022791 -0.034735262 -0.10721435 0.12625346
000040 30 c8 b5 be 2c ac 30 39 d6 f3 31 be c1 95 57 bd
       -0.35504293 0.00016848807 -0.17378172 -0.05263305
000050 32 e7 db bd 8d d9 fb 3a 51 81 8b bc 44 9f 11 be
       -0.107374564 0.0019214615 -0.017029436 -0.14220911
000060 56 15 d0 3d e7 5c 40 be 4e dc 92 bd ad b8 d6 3d
       0.101603195 -0.1878544 -0.07170926 0.10484443
000070 17 d6 51 3e eb d0 06 be 94 8c 88 be 54 8e 8f be
       0.20491825 -0.13165633 -0.26669753 -0.28038275
000080 42 5f 85 be 6f 0f 75 3d 57 9b 41 3d 74 6b 32 bd
       -0.26049238 0.05982917 0.047267284 -0.043559507
000090 fb b8 85 bc f7 f6 7d be a6 66 a1 be 2a 4d ba 3e
       -0.016323557 -0.24801241 -0.31523627 0.36386997
0000a0 5a 1c b8 3d b4 8b b9 be 2c af 00 3e 2f e7 f5 3e
       0.08989783 -0.36239398 0.12566823 0.48027942
0000b0 d5 8f 81 be 61 72 89 bd 27 76 ab bd 40 18 58 3e
       -0.25305048 -0.06711269 -0.08372145 0.21103
0000c0 65 01 70 3e 0d 80 ce bd e9 dc a1 be 34 d2 56 3e
       0.23438032 -0.100830175 -0.31613854 0.20978624
0000d0 44 4d 5d 3e 0d a3 d6 3e e9 99 b1 3e 0f f2 3d 3e
       0.21611506 0.41921273 0.34687737 0.1854937
0000e0 7e 3e c9 be 5a f3 27 bd ea ad 0c 3e 5f e7 67 be
       -0.3930549 -0.041003563 0.13738218 -0.22646855
0000f0 70 49 41 bc e7 a5 86 bd ff 2c d4 3c 67 1d 42 bc
       -0.011797294 -0.06574612 0.025900362 -0.01184783
000100 9e d4 bd be 8f 2e c0 be c7 46 4b 3d 7e b6 0b 3e
       -0.37076277 -0.3753552 0.049628045 0.13643834
000110 10 e9 45 be 64 cc 6e 3e 50 66 59 bd d3 92 ed 3d
       -0.19327188 0.23320156 -0.05307609 0.1160027
000120 05 03 ed 3d c3 91 e7 3d f6 49 61 3e 5c 99 99 be
       0.115728416 0.11307099 0.2200087 -0.29999816
000130 eb 10 b4 bc 69 19 0e 3d b3 5c db 3d 83 39 01 be
       -0.021980723 0.0346922 0.1071104 -0.12619595
000140 29 df b5 3e d3 34 02 39 61 cf 31 3e 14 67 58 3d
       0.3552182 0.00012417445 0.17364265 0.052832678
000150 30 b2 db 3d f4 3a 0b bb 16 07 8b 3c ae 68 11 3e
       0.10727346 -0.0021244856 0.016971152 0.14200088
000160 33 da d0 bd 61 77 40 3e ee bb 92 3d fb a2 d6 bd
       -0.10197868 0.1879554 0.07164751 -0.10480305
000170 56 f8 51 be 66 db 06 3e 54 9b 88 3e 8e 93 8f 3e
       -0.20504889 0.13169631 0.26681006 0.28042263
000180 b4 68 85 3e 46 e6 74 bd 91 17 41 bd 72 7f 32 3d
       0.26056445 -0.05978992 -0.047141615 0.043578573
000190 f9 4d 86 3c 4a dc 7d 3e 7d 54 a1 3e 27 30 ba be
       0.016394602 0.24791065 0.31509772 -0.36364862
0001a0 55 4d b8 bd fc a2 b9 3e e9 dc 00 be 09 ec f5 be
       -0.08999125 0.3625716 -0.1258427 -0.48031643
0001b0 5d aa 81 3e 33 81 88 3d e5 2a ab 3d e7 2e 58 be
       0.2532529 0.06665268 0.08357791 -0.21111642
0001c0 9b 3a 70 be e7 12 ce 3d 0c 0d a2 3e 5a d1 56 be
       -0.23459856 0.10062199 0.3165058 -0.20978299
0001d0 d1 fa 5c be 3a 97 d6 be 57 70 b1 be 4f 31 3e be
       -0.21580054 -0.41912252 -0.3465602 -0.18573497
0001e0 04 6c c9 3e 98 d5 27 3d 48 b5 0c be 91 c6 67 3e
       0.39340222 0.040975183 -0.13741028 0.22634341
0001f0 43 f0 42 3c 6c 67 86 3d e5 8e d2 bc e7 2e 3f 3c
       0.011898103 0.06562695 -0.025702903 0.011668897

fc_actor.bias f4 [2]
000000 10 36 ff be 10 36 ff 3e
       -0.49845934 0.49845934

fc_critic.weight f4 [1, 64]
000000 77 ce c7 3e 9f 76 ca 3e 1b d5 0f 3f c5 9b 10 3f
       0.39024708 0.39543626 0.5618455 0.56487685
000010 eb 34 02 3f 99 cc 11 3f 4e c0 1c 3f 82 01 22 3f
       0.50861996 0.56952816 0.61230934 0.6328355
000020 16 99 04 3f f8 e6 21 3f e9 1d 09 3f 5b 05 e4 3e
       0.5179609 0.63243055 0.53561264 0.44535336
000030 c9 43 12 3f 04 3f 00 3f 7f a0 e8 3e ab f8 1d 3f
       0.5713468 0.50096154 0.4543495 0.6170756
000040 39 ea 1b 3f 47 9c 3f 38 ce c7 fc 3e 97 24 14 3f
       0.6090427 4.5683493e-05 0.4937119 0.5786833
000050 7a a3 04 3f cb 9e 18 3f 52 53 d8 3e 81 fb 0b 3f
       0.51811945 0.596173 0.42251068 0.5468064
000060 7c 6f e8 3e 1b a9 0f 3f c5 14 d5 3e 65 9a b5 3e
       0.45397556 0.5611741 0.41617408 0.35469356
000070 8c 30 f8 3e 55 c6 08 3f a2 4c 15 3f 7b 7d 0f 3f
       0.48474538 0.5342763 0.5832006 0.56050843
000080 6b 4e 12 3f c2 bf 04 3f 9b 30 0c 3f a0 0e 1a 3f
       0.57150906 0.518551 0.54761666 0.60178566
000090 7c cf 06 3f 74 55 13 3f a0 ae f8 3e 8f c8 0a 3f
       0.52660346 0.57552266 0.48570728 0.5421228
0000a0 f9 57 11 3f 46 bc 01 3f 98 a5 d8 3e be a2 c6 3e
       0.5677486 0.5067791 0.42313838 0.38796037
0000b0 64 6f fd 3e eb d9 0d 3f 89 5d 0e 3f de fa ec 3e
       0.49499047 0.5541064 0.55611473 0.46285146
0000c0 a0 af c5 3e 86 4f ef 3e 51 73 21 3f e9 41 e2 3e
       0.38610554 0.4674036 0.63066584 0.4419091
0000d0 a8 66 05 3f 06 34 ce 3e 56 bb ff 3e 69 5d 0a 3f
       0.52109766 0.40274066 0.49947613 0.5404878
0000e0 f9 d0 12 3f 1b 26 fe 3e a6 84 23 3f 92 0d 1e 3f
       0.57350117 0.49638447 0.6387428 0.61739457
0000f0 15 97 0b 3f 79 cb 0b 3f 84 6b 04 3f db 85 0f 3f
       0.5452741 0.5460735 0.51726556 0.5606362
