mario/policy_cartpole.pth (torch_old, 20032 bytes, 7 tensors)

FC_network.lin1.weight f4 [64, 4]
000000 d8 1f 35 3e 02 91 af 3e a3 7d 7b bf 77 b9 11 bf
       0.17687929 0.3429032 -0.9823858 -0.5692362
000010 72 f6 ce 3c 69 e3 3b 3e af a9 88 3d 05 1a 92 3e
       0.025263999 0.18348469 0.066729896 0.28535476
000020 a4 65 dc 3e 3d dd 5d 3d c9 64 31 bf 58 6e 81 3b
       0.43046296 0.054166067 -0.6929441 0.0039499216
000030 87 78 a3 bf 39 a9 37 be 6e f3 21 be 76 b8 47 be
       -1.2771157 -0.17935647 -0.15815517 -0.1950396
000040 20 ad 48 3f 81 2f ac 3e d7 eb 26 bf 74 8e 2e bd
       0.7838917 0.33629993 -0.65203613 -0.042616323
000050 0e 5f a1 3e 8c 6c d2 3e d6 7d b0 3d 60 3e c9 3e
       0.31517833 0.4109844 0.08617751 0.393054
000060 55 04 d9 bb b0 92 00 be 98 7e 0e 3f 5b cf dd be
       -0.006622831 -0.12555957 0.55661917 -0.43322262
000070 9f 4d 0d be c3 53 f3 bd 33 73 26 be cd 19 a9 3e
       -0.13799141 -0.11881211 -0.16254883 0.33027497
000080 48 c1 80 be 9e f9 dc be 5a 1a ba be f2 50 ed be
       -0.25147462 -0.43159193 -0.3634823 -0.4635082
000090 6d 01 e9 bd b0 d0 1c 3f f9 dc a5 3e 36 93 ce 3d
       -0.11377225 0.6125593 0.3239515 0.10086672
0000a0 ae 7b a7 be d8 12 1f bf 5f cc fb be 99 cb a3 be
       -0.32711548 -0.6213813 -0.4917936 -0.3199127
0000b0 7e 36 51 be 29 f0 a5 be eb f9 a5 3e 23 d0 67 3e
       -0.20430943 -0.3240979 0.32417235 0.22637992
0000c0 4e c9 38 bb 8a f1 2e 3c f2 ed bb 3e 92 3f c5 3e
       -0.0028196159 0.010677705 0.36704975 0.38525063
0000d0 20 ac 67 3e b0 b8 ed bd d8 fa e3 3e 3e 26 96 be
       0.22624254 -0.11607492 0.44527316 -0.2932605
0000e0 02 7a 9b be c5 8b 11 bf 44 ae 7f bf e6 c5 90 be
       -0.30366522 -0.56853896 -0.99875283 -0.28275985
0000f0 c4 99 50 3f e9 97 05 3f c7 cd c6 3e e5 60 af 3e
       0.8148463 0.5218492 0.3882887 0.34253612
000100 ee 94 74 3f 40 b0 9f 3e 04 a0 1e 3f 4c 6d 94 3e
       0.9553975 0.31189156 0.61962914 0.28989637
000110 22 f9 bd 3e 56 9f d4 3e 5f 8d 01 be b2 7f bf 3c
       0.37104136 0.41527814 -0.12651585 0.02337632
000120 e3 0a ae 3e 2e b6 26 3f 6e 08 97 3f 9d 32 ce 3e
       0.3399268 0.65121734 1.1799448 0.4027299
000130 5f 34 e1 3c d8 0a e6 be 86 1d 7a 3e 5d 88 ab bd
       0.027490793 -0.44930148 0.24425325 -0.083756186
000140 4d ae e2 be 16 25 92 3e ff 63 0a 3f 46 12 da be
       -0.44273606 0.2854392 0.5405883 -0.42592067
000150 09 a0 3c 3f 97 49 c4 be e6 3f ee be 0e f7 18 be
       0.73681694 -0.38337395 -0.46533126 -0.14937994
000160 90 bf 06 3e d8 29 f2 be 13 30 96 3d 20 fc 34 3e
       0.13159013 -0.4729755 0.07333388 0.17674303
000170 bf 3a 6c 3e 39 f1 e5 bd 5b c4 d2 be 66 f2 86 be
       0.23069285 -0.1122765 -0.41165432 -0.2635681
000180 71 82 55 3e 1c 56 28 be f9 88 8f be d5 5c 74 be
       0.2085054 -0.16439098 -0.2803419 -0.23863538
000190 d7 94 9d 3f 03 10 88 3e d4 91 cd be 4f bd 6c 3e
       1.2311047 0.26574716 -0.4015032 0.2311909
0001a0 3c 27 62 bf eb 56 76 be 41 99 9d bf 28 74 81 be
       -0.88341117 -0.24056594 -1.2312394 -0.25283933
0001b0 b7 9f 04 3e 8d e3 47 3d 8f 6d f7 bd 1d 08 6f 3e
       0.12951551 0.048800994 -0.120814435 0.23342939
0001c0 d5 08 c2 be 8a 01 ab 3e 07 aa 20 3f d2 3d a8 be
       -0.37897363 0.33399612 0.6275944 -0.32859665
0001d0 32 e6 87 ba f1 17 84 bd 25 81 39 3e a4 89 d4 3d
       -0.0010368286 -0.06449879 0.18115671 0.10377815
0001e0 cb 99 a2 3d 93 ab 64 be f3 0c b5 be 7b 19 64 3e
       0.0793949 -0.22331075 -0.35361442 0.22275345
0001f0 14 2b e6 be ae 5b f6 be 4d dc 34 be 8d 4d 85 be
       -0.4495474 -0.4811682 -0.17662163 -0.2603573
000200 35 de 01 be fc 10 0f bf ee 8e 63 be 8e 6c b7 3d
       -0.12682422 -0.5588529 -0.22222492 0.08956252
000210 3c 60 7a be 28 bc 11 ba 82 be 0e 3f 32 54 0f be
       -0.24450773 -0.00055593485 0.5575944 -0.13996962
000220 8a 07 b2 be df 6f 33 be 5a 74 a8 3e 70 30 1e 3f
       -0.34771377 -0.17523144 0.3290127 0.6179266
000230 d5 40 17 3f a6 49 ab 3e f5 c1 2e 3f df 13 03 3d
       0.590833 0.33454627 0.68264705 0.032001372
000240 88 b2 94 be e2 b7 7d be 31 fa b9 3e b8 6e e6 bd
       -0.2904246 -0.24777177 0.36323693 -0.11251587
000250 4d ac 8f be 39 df 20 bf b4 fe 0a bf 8e 21 dd be
       -0.28061143 -0.6284061 -0.54294896 -0.43189663
000260 aa 87 f4 be 1e da c8 3e ae 9c 41 3d e6 11 0f bf
       -0.47759753 0.3922891 0.047268562 -0.55886686
000270 9b 64 7c 3d e8 16 14 bf da 2e d3 bd 40 14 a4 3c
       0.061619382 -0.5784745 -0.103116706 0.020029187
000280 f0 8c a1 bc 58 42 84 be c5 cc e3 be c9 51 e5 be
       -0.019720525 -0.25831866 -0.44492164 -0.4478896
000290 db 2b 6d bf a8 3b 19 3d 2b 2f 40 3d 96 67 e4 3d
       -0.92645043 0.03741041 0.046919983 0.1115257
0002a0 1b 39 b3 be 46 a5 1c be 25 dd 02 3f 60 bf 3c be
       -0.35004506 -0.15297422 0.5111869 -0.18432379
0002b0 23 11 37 3f 24 8e e7 3e 36 e4 95 3e da 5f 97 3e
       0.71510524 0.45225632 0.29275674 0.29565316
0002c0 e8 5c de be 00 e2 12 bf 38 32 40 be b6 da 98 be
       -0.43430257 -0.573761 -0.18769157 -0.29854363
0002d0 bb 17 70 3e ea 44 f2 bd 2b 4e d4 3e 6d 1b 12 3d
       0.23446552 -0.118295506 0.41465887 0.035670687
0002e0 c1 39 82 3f 58 8e e0 3c 78 05 c3 be 0b b1 11 3e
       1.0173875 0.027411625 -0.3809011 0.14227693
0002f0 db d9 87 be 94 0f a0 3e e3 59 ff 3e a8 54 7d 3e
       -0.26533398 0.31261885 0.49873266 0.24739325
000300 d9 dd a2 be 52 6b 19 be f8 d3 a7 be ed 2a 88 be
       -0.3180988 -0.14982346 -0.32778907 -0.2659525
000310 1e fb 49 bf 38 bd c3 3d 41 6a 91 bf 84 55 85 bc
       -0.788988 0.09557575 -1.1360551 -0.016276129
000320 ea 59 c6 bd e6 f0 c0 3d c9 c5 66 be 56 e8 86 be
       -0.096851185 0.09420948 -0.22536387 -0.26349133
000330 7f 6d 3a bd 41 75 ed 3e 90 04 2b bd 8b c4 b9 3e
       -0.04551458 0.4637852 -0.041752398 0.36282763
000340 3b e5 87 3e 1c 53 95 bd d7 7c 3b 3d 61 a7 0c be
       0.26542076 -0.072912425 0.045773353 -0.13735725
000350 a0 52 48 bf 3b b8 29 3d 87 87 a4 3d 1e 5a 75 bd
       -0.78251076 0.04143546 0.08033662 -0.059900396
000360 c6 34 93 bf ea d9 e6 be 85 fe da 3d 98 ca bf be
       -1.150048 -0.4508813 0.10693077 -0.37459254
000370 22 c1 99 3d a5 8a 14 3f 14 f6 e3 3e b1 10 24 3e
       0.0750754 0.58024055 0.4452368 0.16021992
000380 0b 1d c4 be 2b 05 07 3e 49 1a 97 be 4d 2c 09 be
       -0.38303408 0.13185565 -0.2951224 -0.13395806
000390 59 a1 6e bf 30 b5 78 3e ad 8e dc bd d5 fc 90 3d
       -0.93214947 0.24287868 -0.10769401 0.07079474
0003a0 66 18 e2 bc d1 47 84 3e 18 b1 08 3f 09 70 72 be
       -0.027599525 0.25836042 0.53395224 -0.2367555
0003b0 9e dd c6 3e b2 fc be be 75 d8 50 be 1d 33 57 3c
       0.38840955 -0.37302166 -0.20395072 0.013134745
0003c0 38 98 5b 3f 31 a9 e3 3e 40 33 69 be ed 56 a0 3e
       0.8577914 0.4446502 -0.22773457 0.3131632
0003d0 af b2 ba 3e d0 94 11 bf d3 59 b3 3e 67 a0 07 bf
       0.3646445 -0.56867695 0.35029468 -0.5297913
0003e0 45 40 37 3e 11 ec 08 be c6 ce 57 be 5c e7 ca bb
       0.1789561 -0.13371302 -0.21074972 -0.006192131
0003f0 f9 b9 a8 3e e6 d1 ab be c2 15 95 be 72 c3 86 be
       0.32954386 -0.33558577 -0.29118162 -0.26320988

FC_network.lin1.bias f4 [64]
000000 1c 20 84 be 87 68 0c 3f 39 56 9c 3b ea bb 39 bb
       -0.25805748 0.54846996 0.0047710207 -0.0028340765
000010 32 db 15 3c 57 0f 0d 3f 04 64 1b 3f b4 b4 33 3f
       0.0091464985 0.5510153 0.60699487 0.70197606
000020 be f4 05 3f b3 32 86 3e 83 99 4e bd c3 56 e2 3e
       0.5232657 0.26210555 -0.05043937 0.4420682
000030 22 f4 36 3f 68 1a fc 3e f2 c4 2d bd 94 da 1b 3d
       0.7146627 0.49238896 -0.04242415 0.03805025
000040 4b ae 62 3c 5c 9e d6 3e 35 ab 1e 3d fb a3 06 bf
       0.0138355 0.41917694 0.038737494 -0.52593964
000050 ce a4 51 3f 7f 63 39 bc b1 99 98 3e 1d 89 0e 3f
       0.81892097 -0.011315226 0.29804757 0.5567797
000060 fd 21 da 3e 18 cb 4b 3c 95 9f 83 bc d6 23 34 3f
       0.42604056 0.012438558 -0.016067306 0.7036718
000070 d4 3f e3 3e 3d 82 3f 3f 10 dd 57 3e ff 52 f2 3e
       0.44384634 0.748081 0.21080422 0.47328946
000080 ad b2 8e 3e e4 80 a6 3e d5 06 3c be 34 28 fe 3e
       0.27870694 0.3252021 -0.18361981 0.49640048
000090 88 06 f1 3e af 74 cc 3e ec be 92 3c 50 c1 c8 bd
       0.47075295 0.39932773 0.017913304 -0.098024964
0000a0 98 dc 32 3f 09 85 90 3b ac 01 06 3f 7c 56 15 3d
       0.6986785 0.0044103903 0.523463 0.03645943
0000b0 5e 2c 45 bd 86 14 d3 3e cc a7 02 3c f6 79 d5 3e
       -0.048138015 0.41226596 0.007974576 0.4169461
0000c0 59 b4 e7 3e f0 a7 33 3b e0 5b 01 3f 32 45 f1 3e
       0.45254782 0.002741333 0.50530815 0.47123104
0000d0 06 c4 0a 3f 5b 7e 76 bb 08 c6 ca bc 38 71 b6 3e
       0.5420536 -0.0037611935 -0.024752632 0.35633254
0000e0 39 81 07 3f 5f 7f 4b 3b 15 dd 13 3f 0e 7f 2b 3f
       0.52931553 0.003105126 0.5775922 0.66990745
0000f0 ab 39 07 3d 99 ee d1 3e d5 e0 07 3f df 88 dc 3e
       0.03301398 0.41002348 0.5307744 0.43073174

FC_network.lin2.weight f4 [64, 64]
000000 85 ba 28 be a3 54 3d 3e ad 0e df be e8 67 45 bf
       -0.16477402 0.18489318 -0.43565884 -0.77111673
000010 2e f3 87 be 0d 75 ba 3e c6 eb 93 3e e8 63 a7 3d
       -0.2655272 0.36417428 0.28890818 0.081733525
000020 23 52 39 3e 69 94 62 3d dd 54 48 bf f7 fd f5 bd
       0.18097739 0.055317316 -0.7825449 -0.120113306
000030 84 3f 76 3e 30 59 ba 3e 8d d9 3d bf a9 a0 14 bf
       0.24047667 0.3639617 -0.7416008 -0.5805765
000040 a2 94 02 bf 2f 16 a3 3e 69 1c 0f bf 29 d6 23 be
       -0.51008046 0.31852862 -0.55902725 -0.15999664
000050 0f 8e d7 3d c7 fc 5d bf 44 c1 92 3d 2d 54 84 3e
       0.105251424 -0.8671383 0.07165769 0.2584547
000060 93 8b db 3d f7 e8 d2 be 76 d6 74 bf ef 8a 73 3e
       0.10719981 -0.41193363 -0.9563974 0.23783468
000070 8c a7 5e bc 77 1b 40 3e 6b 7d f3 bd af ec 3d 3e
       -0.013589751 0.18760477 -0.11889156 0.18547319
000080 ca 0b e8 bd 05 17 96 3e ca 8c bf be 1a e4 ca 3e
       -0.113303736 0.29314438 -0.374121 0.39627153
000090 ac 69 76 3d 32 45 2b 3e 29 30 a2 be 4a 0f 41 bc
       0.06015937 0.16725615 -0.31677368 -0.01178343
0000a0 03 3d 9d 3d 89 4e 5a bf 35 82 b7 3c dc 41 12 bf
       0.07677653 -0.85276085 0.022400955 -0.57131743
0000b0 fc 0c 1e bf 7d 98 ab 3e fe 9b 0e bf a5 93 fa 3b
       -0.6173856 0.33514777 -0.55706775 0.007646995
0000c0 fc bf d7 3c ed 79 97 bf ec ba 11 3c 82 78 86 3e
       0.026336662 -1.1834084 0.008894663 0.26263815
0000d0 76 d0 30 3e 46 6c 63 bf 82 77 61 bf d3 44 28 3e
       0.17267022 -0.8883709 -0.8807298 0.16432504
0000e0 b1 52 51 3e 54 1c 0f bf c7 25 90 3e a2 26 8b 3e
       0.204417 -0.559026 0.28153822 0.27177912
0000f0 be 47 c4 be f2 0c 95 3e 9b b5 78 3e aa fc c3 3e
       -0.38335985 0.2911144 0.24288027 0.38278705
000100 4b 3c 8c bd 7a 2f b4 3e 06 51 4d be 6b 51 dd be
       -0.068474375 0.35192472 -0.20050439 -0.4322618
000110 b2 00 9a be 51 92 af 3e 9d a9 b1 3e fc ae 2f 3e
       -0.30078655 0.34291318 0.34699717 0.17156595
000120 dc 05 5e 3e 46 d4 af 3d 33 97 e9 be 19 47 80 3e
       0.21681923 0.0858541 -0.45623168 0.25054243
000130 df c0 9b 3e e4 90 ad 3e bc 6c f4 be b2 fa 00 bf
       0.30420586 0.33899605 -0.47739208 -0.5038253
000140 46 b2 02 bf e9 67 77 3e a9 c0 28 bf 46 93 81 bd
       -0.51053274 0.24160732 -0.65918976 -0.06326918
000150 96 91 9c 3e ac aa 60 bf 4a 65 80 3e 99 0f bb 3e
       0.30579823 -0.87760425 0.25077277 0.36535338
000160 35 ed 63 3e 55 49 b8 be 46 5b 55 bf ab ab 60 3e
       0.22258456 -0.35993448 -0.833424 0.21940486
000170 72 bc 8a 3e b1 31 85 3e 1d de 92 3a ef b3 68 3e
       0.27096897 0.26014474 0.0011205111 0.22724889
000180 a8 96 aa 3d 45 9b b4 3e da d7 2b be 7e 38 fa 3e
       0.08329517 0.3527471 -0.1678156 0.48871225
000190 76 7a 8b 3e 0e 35 4d 3e 6d 1b 59 bd 7f 00 21 3e
       0.27241868 0.2003977 -0.05300467 0.15722845
0001a0 e1 ea b5 3e ea 65 21 bf f8 8d 81 3e 96 e0 35 bf
       0.3553076 -0.63046134 0.25303626 -0.71045816
0001b0 fe e1 d5 be 8b 74 ac 3e c1 b4 35 bf 4a 91 80 3e
       -0.4177398 0.33682665 -0.70978934 0.25110847
0001c0 11 b9 be 3e 8e 93 71 bf cc fc ee 3d 66 8e 33 3e
       0.3725057 -0.94365776 0.11669311 0.1753479
0001d0 9d 89 b3 3e 1d 2f 2c bf de e5 df be 93 64 17 3e
       0.35065928 -0.6725939 -0.43730062 0.1478446
0001e0 a7 2c f9 3d 53 f5 fa be 3a fa 6a 3e 04 7f b5 3e
       0.1216672 -0.49015293 0.22947016 0.35448468
0001f0 13 4a 04 bf 8a c1 0a 3f aa d6 69 3e f2 d9 cc 3e
       -0.5167553 0.5420157 0.22835794 0.4001003
000200 50 1c 1f 3e b4 54 87 be 7b 14 d5 3e 9b 18 0e 3f
       0.15538144 -0.2643181 0.41617188 0.55506295
000210 b0 42 e4 3e 22 1b dc bd 31 10 73 3b dc 58 28 3d
       0.4458213 -0.10747363 0.0037088508 0.041100368
000220 90 0e 52 3e ac 68 0a be 86 72 c7 3e a6 fe ec bd
       0.20513368 -0.13516492 0.38954562 -0.11572008
000230 29 ee 9a be 2a 68 46 3c 8c 25 2f 3f b2 96 d6 3e
       -0.30259827 0.012109796 0.68416667 0.41911846
000240 31 19 17 3f a5 73 38 3e 9d ac 06 3f fd ef a9 3d
       0.59022814 0.18012865 0.52607137 0.08297727
000250 7e 1c 0e 3d 21 1e 40 3f 63 f9 0d 3e 43 7b 97 3e
       0.03469514 0.75045973 0.13864665 0.2958623
000260 71 8d 77 3e a0 85 ea 3e 1a 89 52 3f 7e 46 48 be
       0.2417505 0.45805073 0.8224045 -0.1955814
000270 19 97 04 3d b8 1d 14 ba 60 20 82 3d 65 8f 25 3e
       0.03237066 -0.00056501804 0.06353831 0.16167982
000280 f0 06 d2 3d 51 8e ab bd 42 4c bc 3c d0 c2 94 ba
       0.102552295 -0.08376754 0.022985581 -0.0011349563
000290 6c c4 b7 bd f2 48 a6 3e 3a 32 8f 3e c4 05 26 3e
       -0.089730114 0.32477528 0.27968007 0.16213137
0002a0 7e 61 37 3e 46 e0 9b 3e 10 14 67 3a ea c7 ea 3e
       0.17908284 0.30444545 0.000881494 0.45855647
0002b0 b6 c7 04 3f 32 86 aa be ea 5a 38 3f f7 9c 78 be
       0.51867235 -0.33305508 0.72013724 -0.24278627
0002c0 c9 a2 ee 3d df 10 68 3f 5f 77 97 3e 75 f5 c8 bb
       0.116521426 0.90650743 0.2958326 -0.0061327764
0002d0 c7 60 4c bd 28 06 20 3f af fc 1b 3f 98 87 96 3d
       -0.04989698 0.62509394 0.6093244 0.07350081
0002e0 59 95 a2 3e ff a6 d0 3e 4d 53 12 3e 5e 7e b1 3b
       0.31754568 0.40752408 0.14289589 0.0054166755
0002f0 57 e4 d2 3e 2b 56 10 3e ee d9 4b bd 70 1f 7f 3e
       0.41189834 0.1409537 -0.04976838 0.24914336
000300 95 20 48 be ea 79 6f 3e c4 73 8e be 27 05 02 bf
       -0.19543679 0.2338635 -0.27822697 -0.5078911
000310 09 41 c1 be f4 af b1 3e bd 2b e3 3e b1 06 7f 3e
       -0.3774493 0.34704554 0.44369307 0.24904896
000320 a0 ea b9 3e a3 f9 cd 3d 12 83 bd be 80 13 08 3e
       0.36311817 0.1005738 -0.3701406 0.13288689
000330 0f 43 50 3e e6 4d a4 3e 5b c7 97 be ce fb 23 bf
       0.20338081 0.32090682 -0.29644284 -0.640561
000340 a5 41 17 bf 93 85 2c 3e 3f de 01 bf 11 aa 13 bd
       -0.5908454 0.1684783 -0.50729746 -0.03605086
000350 15 7c 4a 3e 22 79 66 bf 74 6b 9b 3d c4 65 91 3e
       0.19773896 -0.90028584 0.075888544 0.28397954
000360 67 dc 5e 3e 79 53 10 bf 10 a6 50 bf a4 a0 a1 3e
       0.21763764 -0.5637737 -0.8150339 0.31567872
000370 d9 2c a9 3d a9 11 ac 3e 8a f8 4c 3d f2 56 7c 3e
       0.08260507 0.33607224 0.050041713 0.24642542
000380 5b 9f 2c 3e 42 50 ef 3e 42 52 aa be c0 aa d2 3e
       0.16857664 0.4674092 -0.33265883 0.41145897
000390 cc 25 89 3e 8f 90 d0 3e 9f 8a 7b be 55 74 ef bc
       0.2678665 0.4073529 -0.24564599 -0.029230276
0003a0 a1 8b e9 3e de cf 11 bf ff af b0 3e c2 93 2a bf
       0.4561434 -0.56957805 0.34509274 -0.6663171
0003b0 01 56 e1 be bd 1c 9d 3e d8 41 0f bf 45 8a 86 3e
       -0.44010928 0.30685988 -0.55959845 0.26277366
0003c0 fc 22 33 3e 3e f9 84 bf 4e fe 10 3e 01 a0 ab 3e
       0.17493814 -1.0388563 0.1415951 0.3352051
0003d0 5d 11 8e 3e 01 36 06 bf 17 86 0d bf 96 61 52 3e
       0.27747622 -0.52426153 -0.5528273 0.20545039
0003e0 fb e4 c0 3e 3d 39 9a be c6 bd c1 3e 64 5d ca 3e
       0.37674698 -0.30121794 0.37840098 0.39524376
0003f0 2d 79 fc be 10 b2 ba 3e e0 bf 9f 3e 86 4d f8 3e
       -0.493112 0.36463976 0.31201077 0.48496646

FC_network.lin2.bias f4 [64]
000000 98 d7 80 3e 34 3a b1 3e 6c 7a 0f 3d b5 ee 71 3e
       0.25164485 0.34614718 0.03502886 0.23626216
000010 d3 95 15 3e 69 b0 51 3e 4d 4a 81 3e c1 7b 13 bc
       0.14607935 0.20477451 0.25252 -0.009001673
000020 31 a0 a5 3e bd 70 17 3e e8 03 ce 3d 89 9f 92 3e
       0.3234878 0.147891 0.10059339 0.2863734
000030 88 7d bf bd ef 1f de 3c 0a a8 ee bd b9 5b 0e 3e
       -0.09350115 0.027114836 -0.11653145 0.13902177
000040 8e 24 88 3e 1e 46 84 3e 8b 3b cc 3d b8 8d 2c be
       0.2659039 0.25834745 0.099722944 -0.16850936
000050 84 34 48 bc e2 ef 25 be 23 ab 92 3d cf 88 99 3e
       -0.012219552 -0.1620479 0.07161548 0.2998719
000060 fa 30 86 3e c3 3d 4f 3d e4 db 69 3e 81 4f 7f 3d
       0.2620924 0.05059601 0.22837788 0.06233168
000070 dc d7 9f 3d 07 ee 49 3c 1a b1 5a bd 03 34 d2 3d
       0.07804844 0.012324817 -0.053391553 0.10263827
000080 b6 4b 85 bb fa ba b0 bb 34 51 05 3e 7f 47 a2 3e
       -0.0040678633 -0.005393383 0.13019258 0.31695172
000090 81 37 a8 3d 50 40 7b bd 25 09 a3 3d b5 54 d4 3e
       0.082137115 -0.06134063 0.079607286 0.41470876
0000a0 44 99 4e 3e fb 40 2b 3d 94 77 d9 3d 0c b9 9b 3e
       0.20175654 0.041810017 0.10618511 0.30414617
0000b0 4c 1d 8e 3c 9a c4 8b 3e bb c5 ac 3e f4 e5 17 3c
       0.017347954 0.27298433 0.33744606 0.009271134
0000c0 6d fa 5c 3e ed dc f2 3d 25 92 b7 3e 08 a7 be bd
       0.21579905 0.118585445 0.35853687 -0.093092024
0000d0 cc de 95 3e 35 cc bc 3e 29 1c 7a 3e ba 03 0d 3e
       0.29271543 0.36874548 0.24424805 0.13770953
0000e0 5a 03 9f 3d 2c a5 eb bb fa b7 92 3d b9 22 d7 b9
       0.07764311 -0.007191321 0.07163997 -0.00041033866
0000f0 9d 10 7d 3e 11 fc 08 3e 87 9f 86 3c 45 bd bb 3e
       0.24713369 0.13377406 0.01643349 0.3666784

actor.weight f4 [2, 64]
000000 cb 0c b6 bc 66 2e 59 3d 6d 20 69 3e 21 f5 1e be
       -0.022222897 0.053022765 0.22766276 -0.15523197
000010 34 cb 92 bd df cd e1 3c 33 5a 0e bd 4d 54 00 3f
       -0.07167664 0.027563987 -0.03475399 0.5012863
000020 95 d0 66 bd 6a 44 1a bb 84 a1 4c bd ed e7 a8 bc
       -0.056351263 -0.0023539313 -0.04995872 -0.020618403
000030 b8 91 f4 bd 16 0b ab bd ec 81 01 bd 6f 91 c7 be
       -0.11941856 -0.08351724 -0.031618044 -0.38978145
000040 cf 87 04 3d 55 21 25 3d 5b c6 32 3e 02 a4 cc be
       0.03235608 0.04031499 0.17458479 -0.39968878
000050 5a 19 98 3e c8 fe 26 be 69 2e 77 3e 22 fe 09 3e
       0.29706842 -0.16308129 0.24138798 0.1347585
000060 ab 62 4b bd 8a 2a 0c 3c 60 38 ce 3d 67 ba 5e 3e
       -0.049654644 0.008555064 0.100693464 0.21750794
000070 ba 54 30 3d ef 07 11 bd 00 d1 f4 be d6 4c f5 3e
       0.04304955 -0.035407957 -0.47815704 0.47910184
000080 14 b6 a6 be 1e 79 ab be 2c af 09 bf d5 b1 0a be
       -0.3256079 -0.33490843 -0.53782916 -0.135444
000090 49 28 7a 3e 9e fa d7 3d cf e2 2f be 51 16 17 3b
       0.2442943 0.10545848 -0.17176364 0.0023054073
0000a0 b6 48 8f bc 27 4d 46 be d9 3c ae 3c 14 1f 09 be
       -0.017490726 -0.19365369 0.021269249 -0.13390762
0000b0 6c 52 b5 bd 30 1a a1 bd 2a 56 9a 3d d9 2a 18 3e
       -0.08853611 -0.07866323 0.07535966 0.14860095
0000c0 44 8b e2 bd 2c 8b 7c bb 12 0f 97 3d 62 6c ff 3d
       -0.11061719 -0.0038535101 0.07375921 0.12471844
0000d0 e4 f0 1e 3d 2e 66 09 3b 55 a5 cb 3d a6 ef c3 bd
       0.03880395 0.0020965445 0.09943644 -0.09567194
0000e0 b9 6a c1 3e 2a dd c1 3c b6 99 ad bd e7 02 0a bc
       0.37776735 0.02366503 -0.08476584 -0.008423544
0000f0 06 01 9f 3d b4 36 8b 3e 38 6e 58 bc d4 ba 70 3c
       0.07763867 0.27190173 -0.013209872 0.014692981
000100 cb 21 b8 3d 7a 9b e4 ba bd cb a6 be ac d4 bc 3d
       0.089908205 -0.0017441355 -0.32577315 0.092202514
000110 c9 02 cf 3d e3 00 01 3e 02 2d 83 bd 24 5e e5 be
       0.10107953 0.12597995 -0.06405069 -0.44798386
000120 74 4c c1 3d 8c 55 0e 3e 4e b9 f7 3d 27 ca d9 3d
       0.094384104 0.13899821 0.12095891 0.106342606
000130 78 ca cb 3c 34 1d dd bd b7 cc 09 bc 68 e6 a1 3e
       0.024876818 -0.10796586 -0.008410624 0.316211
000140 a9 a3 cb bd 89 3f 15 3e 9f 39 28 be b0 db 61 3e
       -0.09943325 0.14575018 -0.1642823 0.2205646
000150 4f bf 69 be e3 b8 7b 3e 41 4b 93 be 98 9a c9 bd
       -0.22826885 0.24582247 -0.28768352 -0.098439395
000160 96 e0 9e 3d ed 0f 8e bd da db 6e 3d a4 5e 8a be
       0.0775768 -0.06936631 0.058315136 -0.2702533
000170 ca 20 04 bd 58 da 4e 3d be 86 9c 3e 44 85 e7 be
       -0.032257833 0.050501198 0.3057155 -0.4521886
000180 0c 2f 9d 3e 39 68 9b 3e 93 ba b4 3e 5c 8f 5b bd
       0.30699956 0.30352953 0.35298595 -0.053603515
000190 d4 75 4c be 54 93 b0 3d d7 30 31 3e ba b1 db 3c
       -0.19966823 0.086218506 0.17303787 0.026818145
0001a0 86 94 c2 bd 89 60 02 3e 4a 08 c1 bd 1a 40 a2 bd
       -0.09500985 0.12732138 -0.09425409 -0.07922383
0001b0 71 15 0e bc 70 20 07 3d 75 4f 43 bd 73 3c 95 ba
       -0.008672104 0.03298992 -0.047683198 -0.0011385813
0001c0 33 1c ab bc 0d f1 e6 3d fe 1a bc 3d 44 ce d8 bd
       -0.02088747 0.112764455 0.09184836 -0.10586217
0001d0 bf 54 a6 bc cd 5d a7 3c 13 2c 2b 3b ce d6 53 3d
       -0.020304082 0.02043047 0.00261188 0.051718526
0001e0 2e 60 9c be 01 9c e7 bd 4e bd 80 bd 13 90 44 3b
       -0.3054213 -0.11309052 -0.06286107 0.0029993101
0001f0 7f 5e 10 be 8c 68 97 be 93 ac bc bd 55 e8 1a bd
       -0.14098547 -0.2957195 -0.092126034 -0.037819225

actor.bias f4 [2]
000000 84 b2 f0 bd 0d bd ea bc
       -0.11752799 -0.0286546

critic.weight f4 [1, 64]
000000 52 29 fc 3e 87 6c d9 3e a0 d2 30 bf 2f 98 f4 3e
       0.49250275 0.42465612 -0.6907139 0.47772357
000010 95 4a 0f 3f c4 d1 e1 3e dd 50 d4 3e bc d5 11 bf
       0.5597318 0.4410535 0.41467944 -0.5696676
000020 38 ea da 3e 31 31 13 3f d7 d1 18 3f 68 02 00 3f
       0.4275682 0.57496935 0.5969519 0.5000367
000030 c4 0c f3 3d c2 e4 d8 bb 7a 5d be be bb 58 1c bf
       0.11867669 -0.006619067 -0.37180692 -0.6107289
000040 2d ea ee 3e ef d3 e8 3e 59 f2 12 bf 18 e1 03 bf
       0.46663037 0.45474193 -0.57401043 -0.5151534
000050 fd b0 34 bf 86 b1 e9 be 36 c8 15 bf 3d 63 fa 3e
       -0.7058256 -0.45643252 -0.5850862 0.48903838
000060 78 e9 f2 3e 96 dd ea bd 68 cc f4 3e 56 d1 3a bf
       0.47443748 -0.114680454 0.478122 -0.7297567
000070 41 48 2d bf 6f 82 21 bd 80 77 29 bf 39 47 25 bf
       -0.67688376 -0.03943103 -0.6619797 -0.645618
000080 65 4b 1e bf 63 35 36 bf fa b2 15 bf eb 26 cc 3e
       -0.6183379 -0.7117521 -0.5847622 0.39873442
000090 76 d1 20 bf 36 9d 38 3d cd 74 20 bf 21 df e4 3e
       -0.6281961 0.045071803 -0.62678224 0.44701484
0000a0 b7 41 02 3f 10 4e f3 bd ee 3c 0c 3f 71 4f ea 3e
       0.5088152 -0.118801236 0.5478047 0.45763734
0000b0 3b bd c4 bd 65 a9 08 3f fe 80 e0 3e de 38 37 bf
       -0.09606405 0.53383476 0.43848413 -0.7157115
0000c0 43 ff 0d 3f 92 32 cb bd 49 2a dc 3e 06 ba c0 bc
       0.55467623 -0.09921755 0.4300101 -0.023526203
0000d0 48 b1 02 3f 50 e5 e8 3e e9 72 02 3f f3 cc e8 3e
       0.5105176 0.45487452 0.5095659 0.45468864
0000e0 2c 03 1e bf 18 af 27 bf e2 a0 ba bd c4 97 45 3f
       -0.6172359 -0.65501547 -0.09112717 0.771847
0000f0 d9 c1 0e 3f ec 9e 56 3f 98 2c 39 bf 22 18 d9 3e
       0.5576454 0.83836246 -0.7233367 0.42401224
